…
[2024-07-09 12:59:13] [INFO] Using Single-GPU mode.
[2024-07-09 12:59:14] [INFO] Data loader created: 0.607s collapsed.
[2024-07-09 12:59:14] [INFO] Calibrate neighbors: [27 32 35].
[2024-07-09 12:59:15] [INFO] Model description:
GeoTransformer(
  (backbone): KPConvFPN(
    (encoder1_1): ConvBlock(
      (KPConv): KPConv(kernel_size: 15, in_channels: 1, out_channels: 64, radius: 0.125, sigma: 0.1, bias: True)
      (norm): GroupNorm(
        (norm): GroupNorm(32, 64, eps=1e-05, affine=True)
      )
      (leaky_relu): LeakyReLU(negative_slope=0.1)
    )
    (encoder1_2): ResidualBlock(
      (unary1): UnaryBlock(
        (mlp): Linear(in_features=64, out_features=32, bias=True)
        (norm): GroupNorm(
          (norm): GroupNorm(32, 32, eps=1e-05, affine=True)
        )
        (leaky_relu): LeakyReLU(negative_slope=0.1)
      )
      (KPConv): KPConv(kernel_size: 15, in_channels: 32, out_channels: 32, radius: 0.125, sigma: 0.1, bias: True)
      (norm_conv): GroupNorm(
        (norm): GroupNorm(32, 32, eps=1e-05, affine=True)
      )
      (unary2): UnaryBlock(
        (mlp): Linear(in_features=32, out_features=128, bias=True)
        (norm): GroupNorm(
          (norm): GroupNorm(32, 128, eps=1e-05, affine=True)
        )
      )
      (unary_shortcut): UnaryBlock(
        (mlp): Linear(in_features=64, out_features=128, bias=True)
        (norm): GroupNorm(
          (norm): GroupNorm(32, 128, eps=1e-05, affine=True)
        )
      )
      (leaky_relu): LeakyReLU(negative_slope=0.1)
    )
    (encoder2_1): ResidualBlock(
      (unary1): UnaryBlock(
        (mlp): Linear(in_features=128, out_features=32, bias=True)
        (norm): GroupNorm(
          (norm): GroupNorm(32, 32, eps=1e-05, affine=True)
        )
        (leaky_relu): LeakyReLU(negative_slope=0.1)
      )
      (KPConv): KPConv(kernel_size: 15, in_channels: 32, out_channels: 32, radius: 0.125, sigma: 0.1, bias: True)
      (norm_conv): GroupNorm(
        (norm): GroupNorm(32, 32, eps=1e-05, affine=True)
      )
      (unary2): UnaryBlock(
        (mlp): Linear(in_features=32, out_features=128, bias=True)
        (norm): GroupNorm(
          (norm): GroupNorm(32, 128, eps=1e-05, affine=True)
        )
      )
      (unary_shortcut): Identity()
      (leaky_relu): LeakyReLU(negative_slope=0.1)
    )
    (encoder2_2): ResidualBlock(
      (unary1): UnaryBlock(
        (mlp): Linear(in_features=128, out_features=64, bias=True)
        (norm): GroupNorm(
          (norm): GroupNorm(32, 64, eps=1e-05, affine=True)
        )
        (leaky_relu): LeakyReLU(negative_slope=0.1)
      )
      (KPConv): KPConv(kernel_size: 15, in_channels: 64, out_channels: 64, radius: 0.25, sigma: 0.2, bias: True)
      (norm_conv): GroupNorm(
        (norm): GroupNorm(32, 64, eps=1e-05, affine=True)
      )
      (unary2): UnaryBlock(
        (mlp): Linear(in_features=64, out_features=256, bias=True)
        (norm): GroupNorm(
          (norm): GroupNorm(32, 256, eps=1e-05, affine=True)
        )
      )
      (unary_shortcut): UnaryBlock(
        (mlp): Linear(in_features=128, out_features=256, bias=True)
        (norm): GroupNorm(
          (norm): GroupNorm(32, 256, eps=1e-05, affine=True)
        )
      )
      (leaky_relu): LeakyReLU(negative_slope=0.1)
    )
    (encoder2_3): ResidualBlock(
      (unary1): UnaryBlock(
        (mlp): Linear(in_features=256, out_features=64, bias=True)
        (norm): GroupNorm(
          (norm): GroupNorm(32, 64, eps=1e-05, affine=True)
        )
        (leaky_relu): LeakyReLU(negative_slope=0.1)
      )
      (KPConv): KPConv(kernel_size: 15, in_channels: 64, out_channels: 64, radius: 0.25, sigma: 0.2, bias: True)
      (norm_conv): GroupNorm(
        (norm): GroupNorm(32, 64, eps=1e-05, affine=True)
      )
      (unary2): UnaryBlock(
        (mlp): Linear(in_features=64, out_features=256, bias=True)
        (norm): GroupNorm(
          (norm): GroupNorm(32, 256, eps=1e-05, affine=True)
        )
      )
      (unary_shortcut): Identity()
      (leaky_relu): LeakyReLU(negative_slope=0.1)
    )
    (encoder3_1): ResidualBlock(
      (unary1): UnaryBlock(
        (mlp): Linear(in_features=256, out_features=64, bias=True)
        (norm): GroupNorm(
          (norm): GroupNorm(32, 64, eps=1e-05, affine=True)
        )
        (leaky_relu): LeakyReLU(negative_slope=0.1)
      )
      (KPConv): KPConv(kernel_size: 15, in_channels: 64, out_channels: 64, radius: 0.25, sigma: 0.2, bias: True)
      (norm_conv): GroupNorm(
        (norm): GroupNorm(32, 64, eps=1e-05, affine=True)
      )
      (unary2): UnaryBlock(
        (mlp): Linear(in_features=64, out_features=256, bias=True)
        (norm): GroupNorm(
          (norm): GroupNorm(32, 256, eps=1e-05, affine=True)
        )
      )
      (unary_shortcut): Identity()
      (leaky_relu): LeakyReLU(negative_slope=0.1)
    )
    (encoder3_2): ResidualBlock(
      (unary1): UnaryBlock(
        (mlp): Linear(in_features=256, out_features=128, bias=True)
        (norm): GroupNorm(
          (norm): GroupNorm(32, 128, eps=1e-05, affine=True)
        )
        (leaky_relu): LeakyReLU(negative_slope=0.1)
      )
      (KPConv): KPConv(kernel_size: 15, in_channels: 128, out_channels: 128, radius: 0.5, sigma: 0.4, bias: True)
      (norm_conv): GroupNorm(
        (norm): GroupNorm(32, 128, eps=1e-05, affine=True)
      )
      (unary2): UnaryBlock(
        (mlp): Linear(in_features=128, out_features=512, bias=True)
        (norm): GroupNorm(
          (norm): GroupNorm(32, 512, eps=1e-05, affine=True)
        )
      )
      (unary_shortcut): UnaryBlock(
        (mlp): Linear(in_features=256, out_features=512, bias=True)
        (norm): GroupNorm(
          (norm): GroupNorm(32, 512, eps=1e-05, affine=True)
        )
      )
      (leaky_relu): LeakyReLU(negative_slope=0.1)
    )
    (encoder3_3): ResidualBlock(
      (unary1): UnaryBlock(
        (mlp): Linear(in_features=512, out_features=128, bias=True)
        (norm): GroupNorm(
          (norm): GroupNorm(32, 128, eps=1e-05, affine=True)
        )
        (leaky_relu): LeakyReLU(negative_slope=0.1)
      )
      (KPConv): KPConv(kernel_size: 15, in_channels: 128, out_channels: 128, radius: 0.5, sigma: 0.4, bias: True)
      (norm_conv): GroupNorm(
        (norm): GroupNorm(32, 128, eps=1e-05, affine=True)
      )
      (unary2): UnaryBlock(
        (mlp): Linear(in_features=128, out_features=512, bias=True)
        (norm): GroupNorm(
          (norm): GroupNorm(32, 512, eps=1e-05, affine=True)
        )
      )
      (unary_shortcut): Identity()
      (leaky_relu): LeakyReLU(negative_slope=0.1)
    )
    (decoder2): UnaryBlock(
      (mlp): Linear(in_features=768, out_features=256, bias=True)
      (norm): GroupNorm(
        (norm): GroupNorm(32, 256, eps=1e-05, affine=True)
      )
      (leaky_relu): LeakyReLU(negative_slope=0.1)
    )
    (decoder1): LastUnaryBlock(
      (mlp): Linear(in_features=384, out_features=256, bias=True)
    )
  )
  (transformer): GeometricTransformer(
    (embedding): GeometricStructureEmbedding(
      (embedding): SinusoidalPositionalEmbedding()
      (proj_d): Linear(in_features=256, out_features=256, bias=True)
      (proj_a): Linear(in_features=256, out_features=256, bias=True)
    )
    (in_proj): Linear(in_features=512, out_features=256, bias=True)
    (transformer): RPEConditionalTransformer(
      (layers): ModuleList(
        (0): RPETransformerLayer(
          (attention): RPEAttentionLayer(
            (attention): RPEMultiHeadAttention(
              (proj_q): Linear(in_features=256, out_features=256, bias=True)
              (proj_k): Linear(in_features=256, out_features=256, bias=True)
              (proj_v): Linear(in_features=256, out_features=256, bias=True)
              (proj_p): Linear(in_features=256, out_features=256, bias=True)
              (dropout): Identity()
            )
            (linear): Linear(in_features=256, out_features=256, bias=True)
            (dropout): Identity()
            (norm): LayerNorm((256,), eps=1e-05, elementwise_affine=True)
          )
          (output): AttentionOutput(
            (expand): Linear(in_features=256, out_features=512, bias=True)
            (activation): ReLU()
            (squeeze): Linear(in_features=512, out_features=256, bias=True)
            (dropout): Identity()
            (norm): LayerNorm((256,), eps=1e-05, elementwise_affine=True)
          )
        )
        (1): TransformerLayer(
          (attention): AttentionLayer(
            (attention): MultiHeadAttention(
              (proj_q): Linear(in_features=256, out_features=256, bias=True)
              (proj_k): Linear(in_features=256, out_features=256, bias=True)
              (proj_v): Linear(in_features=256, out_features=256, bias=True)
              (dropout): Identity()
            )
            (linear): Linear(in_features=256, out_features=256, bias=True)
            (dropout): Identity()
            (norm): LayerNorm((256,), eps=1e-05, elementwise_affine=True)
          )
          (output): AttentionOutput(
            (expand): Linear(in_features=256, out_features=512, bias=True)
            (activation): ReLU()
            (squeeze): Linear(in_features=512, out_features=256, bias=True)
            (dropout): Identity()
            (norm): LayerNorm((256,), eps=1e-05, elementwise_affine=True)
          )
        )
        (2): RPETransformerLayer(
          (attention): RPEAttentionLayer(
            (attention): RPEMultiHeadAttention(
              (proj_q): Linear(in_features=256, out_features=256, bias=True)
              (proj_k): Linear(in_features=256, out_features=256, bias=True)
              (proj_v): Linear(in_features=256, out_features=256, bias=True)
              (proj_p): Linear(in_features=256, out_features=256, bias=True)
              (dropout): Identity()
            )
            (linear): Linear(in_features=256, out_features=256, bias=True)
            (dropout): Identity()
            (norm): LayerNorm((256,), eps=1e-05, elementwise_affine=True)
          )
          (output): AttentionOutput(
            (expand): Linear(in_features=256, out_features=512, bias=True)
            (activation): ReLU()
            (squeeze): Linear(in_features=512, out_features=256, bias=True)
            (dropout): Identity()
            (norm): LayerNorm((256,), eps=1e-05, elementwise_affine=True)
          )
        )
        (3): TransformerLayer(
          (attention): AttentionLayer(
            (attention): MultiHeadAttention(
              (proj_q): Linear(in_features=256, out_features=256, bias=True)
              (proj_k): Linear(in_features=256, out_features=256, bias=True)
              (proj_v): Linear(in_features=256, out_features=256, bias=True)
              (dropout): Identity()
            )
            (linear): Linear(in_features=256, out_features=256, bias=True)
            (dropout): Identity()
            (norm): LayerNorm((256,), eps=1e-05, elementwise_affine=True)
          )
          (output): AttentionOutput(
            (expand): Linear(in_features=256, out_features=512, bias=True)
            (activation): ReLU()
            (squeeze): Linear(in_features=512, out_features=256, bias=True)
            (dropout): Identity()
            (norm): LayerNorm((256,), eps=1e-05, elementwise_affine=True)
          )
        )
        (4): RPETransformerLayer(
          (attention): RPEAttentionLayer(
            (attention): RPEMultiHeadAttention(
              (proj_q): Linear(in_features=256, out_features=256, bias=True)
              (proj_k): Linear(in_features=256, out_features=256, bias=True)
              (proj_v): Linear(in_features=256, out_features=256, bias=True)
              (proj_p): Linear(in_features=256, out_features=256, bias=True)
              (dropout): Identity()
            )
            (linear): Linear(in_features=256, out_features=256, bias=True)
            (dropout): Identity()
            (norm): LayerNorm((256,), eps=1e-05, elementwise_affine=True)
          )
          (output): AttentionOutput(
            (expand): Linear(in_features=256, out_features=512, bias=True)
            (activation): ReLU()
            (squeeze): Linear(in_features=512, out_features=256, bias=True)
            (dropout): Identity()
            (norm): LayerNorm((256,), eps=1e-05, elementwise_affine=True)
          )
        )
        (5): TransformerLayer(
          (attention): AttentionLayer(
            (attention): MultiHeadAttention(
              (proj_q): Linear(in_features=256, out_features=256, bias=True)
              (proj_k): Linear(in_features=256, out_features=256, bias=True)
              (proj_v): Linear(in_features=256, out_features=256, bias=True)
              (dropout): Identity()
            )
            (linear): Linear(in_features=256, out_features=256, bias=True)
            (dropout): Identity()
            (norm): LayerNorm((256,), eps=1e-05, elementwise_affine=True)
          )
          (output): AttentionOutput(
            (expand): Linear(in_features=256, out_features=512, bias=True)
            (activation): ReLU()
            (squeeze): Linear(in_features=512, out_features=256, bias=True)
            (dropout): Identity()
            (norm): LayerNorm((256,), eps=1e-05, elementwise_affine=True)
          )
        )
      )
    )
    (out_proj): Linear(in_features=256, out_features=256, bias=True)
  )
  (coarse_target): SuperPointTargetGenerator()
  (coarse_matching): SuperPointMatching()
  (fine_matching): LocalGlobalRegistration(
    (procrustes): WeightedProcrustes()
  )
  (optimal_transport): LearnableLogOptimalTransport(num_iterations=100)
)
[2024-07-09 12:59:41] [INFO] Iter: 10/400000, loss: 2.512, c_loss: 1.052, f_loss: 1.460, PIR: 0.046, IR: 0.329, RRE: 52.189, RTE: 0.424, RMSE: 0.320, RR: 0.000, lr: 1.009e-05, time: 2.172s/0.451s
…
